Model
Model: "sequential_2590"
________________________________________________________________________________
Layer (type)                        Output Shape                    Param #     
================================================================================
dense_7770 (Dense)                  (None, 512)                     524800      
________________________________________________________________________________
dropout_5180 (Dropout)              (None, 512)                     0           
________________________________________________________________________________
dense_7771 (Dense)                  (None, 1024)                    525312      
________________________________________________________________________________
dropout_5181 (Dropout)              (None, 1024)                    0           
________________________________________________________________________________
dense_7772 (Dense)                  (None, 1)                       1025        
================================================================================
Total params: 1,051,137
Trainable params: 1,051,137
Non-trainable params: 0
________________________________________________________________________________


