Model
Model: "sequential_2843"
________________________________________________________________________________
Layer (type)                        Output Shape                    Param #     
================================================================================
dense_8529 (Dense)                  (None, 1024)                    1049600     
________________________________________________________________________________
dropout_5686 (Dropout)              (None, 1024)                    0           
________________________________________________________________________________
dense_8530 (Dense)                  (None, 1024)                    1049600     
________________________________________________________________________________
dropout_5687 (Dropout)              (None, 1024)                    0           
________________________________________________________________________________
dense_8531 (Dense)                  (None, 1)                       1025        
================================================================================
Total params: 2,100,225
Trainable params: 2,100,225
Non-trainable params: 0
________________________________________________________________________________


