Model
Model: "sequential_3168"
________________________________________________________________________________
Layer (type)                        Output Shape                    Param #     
================================================================================
dense_9504 (Dense)                  (None, 256)                     262400      
________________________________________________________________________________
dropout_6336 (Dropout)              (None, 256)                     0           
________________________________________________________________________________
dense_9505 (Dense)                  (None, 1024)                    263168      
________________________________________________________________________________
dropout_6337 (Dropout)              (None, 1024)                    0           
________________________________________________________________________________
dense_9506 (Dense)                  (None, 1)                       1025        
================================================================================
Total params: 526,593
Trainable params: 526,593
Non-trainable params: 0
________________________________________________________________________________


