Model
Model: "sequential_822"
________________________________________________________________________________
Layer (type)                        Output Shape                    Param #     
================================================================================
dense_2466 (Dense)                  (None, 2048)                    2099200     
________________________________________________________________________________
dropout_1644 (Dropout)              (None, 2048)                    0           
________________________________________________________________________________
dense_2467 (Dense)                  (None, 1024)                    2098176     
________________________________________________________________________________
dropout_1645 (Dropout)              (None, 1024)                    0           
________________________________________________________________________________
dense_2468 (Dense)                  (None, 1)                       1025        
================================================================================
Total params: 4,198,401
Trainable params: 4,198,401
Non-trainable params: 0
________________________________________________________________________________


