Model
Model: "sequential_3622"
________________________________________________________________________________
Layer (type)                        Output Shape                    Param #     
================================================================================
dense_10866 (Dense)                 (None, 512)                     524800      
________________________________________________________________________________
dropout_7244 (Dropout)              (None, 512)                     0           
________________________________________________________________________________
dense_10867 (Dense)                 (None, 1024)                    525312      
________________________________________________________________________________
dropout_7245 (Dropout)              (None, 1024)                    0           
________________________________________________________________________________
dense_10868 (Dense)                 (None, 1)                       1025        
================================================================================
Total params: 1,051,137
Trainable params: 1,051,137
Non-trainable params: 0
________________________________________________________________________________


