Model
Model: "sequential_3149"
________________________________________________________________________________
Layer (type)                        Output Shape                    Param #     
================================================================================
dense_9447 (Dense)                  (None, 1024)                    1049600     
________________________________________________________________________________
dropout_6298 (Dropout)              (None, 1024)                    0           
________________________________________________________________________________
dense_9448 (Dense)                  (None, 512)                     524800      
________________________________________________________________________________
dropout_6299 (Dropout)              (None, 512)                     0           
________________________________________________________________________________
dense_9449 (Dense)                  (None, 1)                       513         
================================================================================
Total params: 1,574,913
Trainable params: 1,574,913
Non-trainable params: 0
________________________________________________________________________________


