Model
Model: "sequential_2237"
________________________________________________________________________________
Layer (type)                        Output Shape                    Param #     
================================================================================
dense_6711 (Dense)                  (None, 256)                     262400      
________________________________________________________________________________
dropout_4474 (Dropout)              (None, 256)                     0           
________________________________________________________________________________
dense_6712 (Dense)                  (None, 512)                     131584      
________________________________________________________________________________
dropout_4475 (Dropout)              (None, 512)                     0           
________________________________________________________________________________
dense_6713 (Dense)                  (None, 1)                       513         
================================================================================
Total params: 394,497
Trainable params: 394,497
Non-trainable params: 0
________________________________________________________________________________


