Model
Model: "sequential_287"
________________________________________________________________________________
Layer (type)                        Output Shape                    Param #     
================================================================================
dense_861 (Dense)                   (None, 2048)                    2099200     
________________________________________________________________________________
dropout_574 (Dropout)               (None, 2048)                    0           
________________________________________________________________________________
dense_862 (Dense)                   (None, 1024)                    2098176     
________________________________________________________________________________
dropout_575 (Dropout)               (None, 1024)                    0           
________________________________________________________________________________
dense_863 (Dense)                   (None, 1)                       1025        
================================================================================
Total params: 4,198,401
Trainable params: 4,198,401
Non-trainable params: 0
________________________________________________________________________________


