Model
Model: "sequential_3383"
________________________________________________________________________________
Layer (type)                        Output Shape                    Param #     
================================================================================
dense_10149 (Dense)                 (None, 2048)                    2099200     
________________________________________________________________________________
dropout_6766 (Dropout)              (None, 2048)                    0           
________________________________________________________________________________
dense_10150 (Dense)                 (None, 256)                     524544      
________________________________________________________________________________
dropout_6767 (Dropout)              (None, 256)                     0           
________________________________________________________________________________
dense_10151 (Dense)                 (None, 1)                       257         
================================================================================
Total params: 2,624,001
Trainable params: 2,624,001
Non-trainable params: 0
________________________________________________________________________________


