Model
Model: "sequential_1340"
________________________________________________________________________________
Layer (type)                        Output Shape                    Param #     
================================================================================
dense_4020 (Dense)                  (None, 2048)                    2099200     
________________________________________________________________________________
dropout_2680 (Dropout)              (None, 2048)                    0           
________________________________________________________________________________
dense_4021 (Dense)                  (None, 256)                     524544      
________________________________________________________________________________
dropout_2681 (Dropout)              (None, 256)                     0           
________________________________________________________________________________
dense_4022 (Dense)                  (None, 1)                       257         
================================================================================
Total params: 2,624,001
Trainable params: 2,624,001
Non-trainable params: 0
________________________________________________________________________________


