Model
Model: "sequential_3877"
________________________________________________________________________________
Layer (type)                        Output Shape                    Param #     
================================================================================
dense_11631 (Dense)                 (None, 1024)                    1049600     
________________________________________________________________________________
dropout_7754 (Dropout)              (None, 1024)                    0           
________________________________________________________________________________
dense_11632 (Dense)                 (None, 1024)                    1049600     
________________________________________________________________________________
dropout_7755 (Dropout)              (None, 1024)                    0           
________________________________________________________________________________
dense_11633 (Dense)                 (None, 1)                       1025        
================================================================================
Total params: 2,100,225
Trainable params: 2,100,225
Non-trainable params: 0
________________________________________________________________________________


