Model
Model: "sequential_36"
________________________________________________________________________________
Layer (type)                        Output Shape                    Param #     
================================================================================
dense_108 (Dense)                   (None, 1024)                    1049600     
________________________________________________________________________________
dropout_72 (Dropout)                (None, 1024)                    0           
________________________________________________________________________________
dense_109 (Dense)                   (None, 2048)                    2099200     
________________________________________________________________________________
dropout_73 (Dropout)                (None, 2048)                    0           
________________________________________________________________________________
dense_110 (Dense)                   (None, 1)                       2049        
================================================================================
Total params: 3,150,849
Trainable params: 3,150,849
Non-trainable params: 0
________________________________________________________________________________


