Model
Model: "sequential_1011"
________________________________________________________________________________
Layer (type)                        Output Shape                    Param #     
================================================================================
dense_3033 (Dense)                  (None, 512)                     524800      
________________________________________________________________________________
dropout_2022 (Dropout)              (None, 512)                     0           
________________________________________________________________________________
dense_3034 (Dense)                  (None, 512)                     262656      
________________________________________________________________________________
dropout_2023 (Dropout)              (None, 512)                     0           
________________________________________________________________________________
dense_3035 (Dense)                  (None, 1)                       513         
================================================================================
Total params: 787,969
Trainable params: 787,969
Non-trainable params: 0
________________________________________________________________________________


