Model
Model: "sequential_1559"
________________________________________________________________________________
Layer (type)                        Output Shape                    Param #     
================================================================================
dense_4677 (Dense)                  (None, 512)                     524800      
________________________________________________________________________________
dropout_3118 (Dropout)              (None, 512)                     0           
________________________________________________________________________________
dense_4678 (Dense)                  (None, 2048)                    1050624     
________________________________________________________________________________
dropout_3119 (Dropout)              (None, 2048)                    0           
________________________________________________________________________________
dense_4679 (Dense)                  (None, 1)                       2049        
================================================================================
Total params: 1,577,473
Trainable params: 1,577,473
Non-trainable params: 0
________________________________________________________________________________


