Model
Model: "sequential_1237"
________________________________________________________________________________
Layer (type)                        Output Shape                    Param #     
================================================================================
dense_3711 (Dense)                  (None, 2048)                    2099200     
________________________________________________________________________________
dropout_2474 (Dropout)              (None, 2048)                    0           
________________________________________________________________________________
dense_3712 (Dense)                  (None, 256)                     524544      
________________________________________________________________________________
dropout_2475 (Dropout)              (None, 256)                     0           
________________________________________________________________________________
dense_3713 (Dense)                  (None, 1)                       257         
================================================================================
Total params: 2,624,001
Trainable params: 2,624,001
Non-trainable params: 0
________________________________________________________________________________


