Model
Model: "sequential_539"
________________________________________________________________________________
Layer (type)                        Output Shape                    Param #     
================================================================================
dense_1617 (Dense)                  (None, 2048)                    2099200     
________________________________________________________________________________
dropout_1078 (Dropout)              (None, 2048)                    0           
________________________________________________________________________________
dense_1618 (Dense)                  (None, 256)                     524544      
________________________________________________________________________________
dropout_1079 (Dropout)              (None, 256)                     0           
________________________________________________________________________________
dense_1619 (Dense)                  (None, 1)                       257         
================================================================================
Total params: 2,624,001
Trainable params: 2,624,001
Non-trainable params: 0
________________________________________________________________________________


